…
          "base_uri": "https://localhost:8080/",
          "height": 1000
        },
        "id": "0NqrD_oRjGiJ",
        "outputId": "a5febacf-e3f0-4ced-d800-e9e1bb1ac649",
        "tags": []
      },
      "outputs": [
        {
          "output_type": "stream",
          "name": "stdout",
          "text": [
            "Model: \"sequential\"\n",
            "_________________________________________________________________\n",
            " Layer (type)                Output Shape              Param #   \n",
            "=================================================================\n",
            " conv2d (Conv2D)             (None, 256, 256, 384)     10752     \n",
            "                                                                 \n",
            " max_pooling2d (MaxPooling2D  (None, 127, 127, 384)    0         \n",
            " )                                                               \n",
            "                                                                 \n",
            " batch_normalization (BatchN  (None, 127, 127, 384)    1536      \n",
            " ormalization)                                                   \n",
            "                                                                 \n",
            " conv2d_1 (Conv2D)           (None, 127, 127, 256)     2457856   \n",
            "                                                                 \n",
            " max_pooling2d_1 (MaxPooling  (None, 63, 63, 256)      0         \n",
            " 2D)                                                             \n",
            "                                                                 \n",
            " batch_normalization_1 (Batc  (None, 63, 63, 256)      1024      \n",
            " hNormalization)                                                 \n",
            "                                                                 \n",
            " dropout (Dropout)           (None, 63, 63, 256)       0         \n",
            "                                                                 \n",
            " conv2d_2 (Conv2D)           (None, 16, 16, 120)       3717240   \n",
            "                                                                 \n",
            " max_pooling2d_2 (MaxPooling  (None, 7, 7, 120)        0         \n",
            " 2D)                                                             \n",
            "                                                                 \n",
            " batch_normalization_2 (Batc  (None, 7, 7, 120)        480       \n",
            " hNormalization)                                                 \n",
            "                                                                 \n",
            " dropout_1 (Dropout)         (None, 7, 7, 120)         0         \n",
            "                                                                 \n",
            " dropout_2 (Dropout)         (None, 7, 7, 120)         0         \n",
            "                                                                 \n",
            " flatten (Flatten)           (None, 5880)              0         \n",
            "                                                                 \n",
            " dense (Dense)               (None, 2048)              12044288  \n",
            "                                                                 \n",
            " dropout_3 (Dropout)         (None, 2048)              0         \n",
            "                                                                 \n",
            " dense_1 (Dense)             (None, 2048)              4196352   \n",
            "                                                                 \n",
            " dropout_4 (Dropout)         (None, 2048)              0         \n",
            "                                                                 \n",
            " dense_2 (Dense)             (None, 8)                 16392     \n",
            "                                                                 \n",
            "=================================================================\n",
            "Total params: 22,445,920\n",
            "Trainable params: 22,444,400\n",
            "Non-trainable params: 1,520\n",
            "_________________________________________________________________\n",
            "None\n"
…
